…
ayers.UpSampling2D(input_shape=(192, 192, 4)))\\nmodel.add(layers.UpSampling2D(input_shape=(384, 384, 4)))\\nmodel.add(layers.UpSampling2D(input_shape=(768, 768, 4)))\\nmodel.add(layers.UpSampling2D(input_shape=(1536, 1536, 4)))\\nmodel.summary()\\n```\\n\\nTake a look at the network shape using the `summary` method of `model`.\\n\\n```\\nModel: \\\"sequential_8\\\"\\n_______________________________________________________________\\nLayer (type)                 Output Shape              Param #   \\n===============================================================\\nup_sampling2d_31 (UpSampling (None, 48, 48, 4)         0         \\n_______________________________________________________________\\nup_sampling2d_32 (UpSampling (None, 96, 96, 4)         0         \\n_______________________________________________________________\\nup_sampling2d_33 (UpSampling (None, 192, 192, 4)       0         \\n_______________________________________________________________\\nup_sampling2d_34 (UpSampling (None, 384, 384, 4)       0         \\n_______________________________________________________________\\nup_sampling2d_35 (UpSampling (None, 768, 768, 4)       0         \\n===============================================================\\nup_sampling2d_35 (UpSampling (None, 1536, 1536, 4)       0        \\n===============================================================\\nTotal params: 0\\nTrainable params: 0\\nNon-trainable params: 0\\n```\\n\\nNote that this model doesn’t have any parameters; it’s not a typical Keras model that must be trained on data before it can predict. The model is ready to make predictions, that is, it will `predict` a new images of size 3072 x 3072.\\n\\n```\\nX_ 
…
